model1.tflite (tflite, 90604 bytes, 6 tensors)

lstm_12/lstm_cell_12/bias f4 [256]
-0.2673186 -0.5227715 0.1921549 0.5879634 0.70181525 0.3619687 0.56622887 -0.361494
0.16683109 -0.28257343 0.22441192 -0.46327123 -0.4204175 0.48417768 0.70695937 -1.4462447
0.2707376 0.97465175 -0.25195384 -0.82420754 0.72032833 0.586284 0.8613598 -0.5493641
0.5708307 0.5402378 -0.87391263 -0.93705714 -0.868166 0.48154408 0.77416587 1.154633
-0.0732537 0.34496102 1.114504 0.76838404 1.231979 0.20145983 -0.33972675 -0.51273173
0.77106315 0.71890646 0.44589105 -0.08829075 0.047514796 -0.0304387 0.37753388 0.9198853
-0.44376794 0.47709456 0.825663 0.36457017 -0.15741481 1.9062488 0.26026997 0.16551651
0.38411707 0.59071505 -0.22388677 0.794253 -0.07735786 0.73776644 0.9481256 0.20909332
1.2273339 1.7712352 0.6984926 -0.18454468 1.9445798 0.99471 1.1298578 1.5700244
0.70260066 1.6935862 1.2103359 1.9543436 1.0803095 1.5916005 0.9048788 1.1919299
2.3895514 0.8728312 1.1830187 0.8963584 1.3897164 0.9402485 0.91000986 1.4483829
0.4533376 0.26294404 0.6300252 2.095537 1.6207271 0.8570308 1.7473603 0.38190314
0.8744795 1.0132201 0.35532492 2.2134414 0.5189934 0.77943534 0.78075624 1.0528781
0.1764666 1.5812709 1.3826609 1.4381628 1.3643632 2.4216278 1.4138134 1.0982771
1.1776775 0.8321383 0.0922814 1.3826844 0.58704054 1.0651642 0.77767587 0.79700047
1.347433 1.5811014 1.6804184 1.9163889 1.0121146 1.179457 1.7938856 1.180374
-0.109962225 0.69880956 -0.39257118 -0.022626638 -0.023198163 -0.7980418 -0.33868888 -0.73861307
-0.49692428 0.0651273 -0.098527655 -0.22610788 0.39577165 -0.086914055 -0.41464996 0.32589164
1.0757321 0.42348653 -0.5486744 -0.23320964 -0.53991026 0.09654906 -0.92624646 -0.8392356
-0.5385774 -0.32429793 -0.2822688 0.30679008 0.22152603 -0.04317632 -0.020876396 0.27150518
0.17819257 0.7447722 -0.4221221 0.6589584 -0.22817375 0.24260063 -0.048822753 0.15648873
0.05222953 0.45785588 -0.5966332 0.5572656 0.23441736 -0.72138935 -0.18133163 0.07458015
0.6048301 -0.5096704 0.2204631 -0.14316489 -0.5460798 -0.23902327 -0.58863246 0.3146222
0.38826913 -0.93982834 -0.14659837 -0.627111 -0.004478089 -0.187556 0.59128064 -0.2534294
-0.40347213 0.6237165 1.6544056 -0.5395526 0.6038904 0.24824189 0.16066886 -0.17664559
0.34547013 0.754799 1.0797231 0.3414327 1.5547456 -0.27921933 0.9642746 0.06546336
0.74005634 0.42443416 1.0385699 0.0038314043 0.8270343 -0.19719993 0.106942914 0.42703488
0.9317727 1.1593058 0.11873137 0.66151035 -0.46943778 0.5654785 -0.13187528 0.81291157
0.5467485 -0.23513134 0.33638063 1.0094024 0.14282472 -0.20853674 1.0069557 0.018376818
0.34557432 -0.07378515 0.76929164 -0.4828095 0.3683958 0.86360556 0.69638216 0.43941188
0.28215677 0.15003398 1.0355276 0.9578969 0.79405105 0.38588324 0.7658169 -0.0115821045
0.6757173 0.2898683 1.0718187 0.82488745 -0.37653887 -0.1845541 0.41523653 -0.3346067
00000000: fcdd 88be 5ad4 05bf 41c4 443e c584 163f
00000010: 2aaa 333f f653 b93e 60f4 103f be15 b9be
00000020: c5d5 2a3e 77ad 90be 3dcc 653e e331 edbe
00000030: f640 d7be 23e6 f73e 4afb 343f 8c1e b9bf
00000040: 1e9e 8a3e c782 793f 1800 81be 44ff 52bf
00000050: 7067 383f b516 163f 1382 5c3f 20a3 0cbf
00000060: f621 123f 064d 0a3f bdb8 5fbf fae2 6fbf
00000070: 2140 5ebf f28c f63e bc2f 463f 04cb 933f
00000080: 0906 96bd bb9e b03e 11a8 8e3f d1b4 443f
00000090: 7db1 9d3f 7c4b 4e3e aaf0 adbe 6342 03bf
000000a0: 6564 453f 410a 383f d54b e43e c8d1 b4bd
000000b0: e09e 423d 955a f9bc 1f4c c13e 9a7d 6b3f
000000c0: 8d35 e3be bd45 f43e a65e 533f f1a8 ba3e
000000d0: 5931 21be f6ff f33f 1b42 853e 297d 293e
000000e0: feaa c43e 1a39 173f 9342 65be 2a54 4b3f
000000f0: cc6d 9ebd 43de 3c3f 5cb8 723f 8f1c 563e
00000100: 4719 9d3f d6b7 e23f 69d0 323f 48f9 3cbe
00000110: fee7 f83f 51a5 7e3f 2e9f 903f 8ff6 c83f
00000120: a3dd 333f 6fc7 d83f 49ec 9a3f ee27 fa3f
00000130: 9547 8a3f 91b9 cb3f 23a6 673f 2991 983f
00000140: 69ee 1840 de71 5f3f 286d 973f be77 653f
00000150: 3ae2 b13f 20b4 703f 68f6 683f 9c64 b93f
00000160: de1b e83e 9aa0 863e 5549 213f 471d 0640
00000170: fc73 cf3f 5f66 5b3f 81a9 df3f cf88 c33e
00000180: e3dd 5f3f 32b1 813f 26ed b53e 06a9 0d40
00000190: c0dc 043f 1389 473f a4df 473f b6c4 863f
000001a0: a9b3 343e 1667 ca3f 08fb b03f b815 b83f
000001b0: 74a3 ae3f f3fb 1a40 d6f7 b43f 5894 8c3f
000001c0: 23be 963f 0407 553f 08fe bc3d cdfb b03f
000001d0: 4a48 163f 4d57 883f c415 473f 3908 4c3f
000001e0: af78 ac3f 8861 ca3f f317 d73f 3b4c f53f
000001f0: f98c 813f 72f8 963f 0b9e e53f 7f16 973f
00000200: e033 e1bd 2fe5 323f 17ff c8be 805b b9bc
00000210: 130a bebc 784c 4cbf a168 adbe bf15 3dbf
00000220: dc6c febe 7661 853d dec8 c9bd d388 67be
00000230: 95a2 ca3e ffff b1bd 004d d4be 45db a63e
00000240: 97b1 893f 3ad3 d83e ed75 0cbf 82ce 6ebe
00000250: 8f37 0abf 83bb c53d 7d1e 6dbf 25d8 56bf
00000260: 35e0 09bf 610a a6be 8985 90be 9713 9d3e
00000270: b8d7 623e a7d9 30bd fa04 abbc ba02 8b3e
00000280: 1d78 363e 64a9 3e3f 6320 d8be 7fb1 283f
00000290: 61a6 69be 4d6c 783e 5efa 47bd 953e 203e
000002a0: a2ee 553d 166c ea3e f4bc 18bf f5a8 0e3f
000002b0: 1b0b 703e f9ac 38bf 00af 39be 7abd 983d
000002c0: 25d6 1a3f c279 02bf 14c1 613e d199 12be
000002d0: e3cb 0bbf 84c2 74be 9eb0 16bf 2916 a13e
000002e0: 36cb c63e 9798 70bf e21d 16be 598a 20bf
000002f0: efbc 92bb ae0e 40be 2b5e 173f 80c1 81be
00000300: e693 cebe e2ab 1f3f 90c3 d33f 1f20 0abf
00000310: 9098 1a3f 1f33 7e3e 6186 243e 95e2 34be
00000320: 76e1 b03e 823a 413f 5e34 8a3f 44d0 ae3e
00000330: e701 c73f d6f5 8ebe b3da 763f a711 863d
00000340: 5574 3d3f 6f4f d93e dcef 843f 4c18 7b3b
00000350: 85b8 533f c7ee 49be e304 db3d 51a4 da3e
00000360: a888 6e3f 2264 943f 6f29 f33d be58 293f
00000370: 265a f0be 33c3 103f 500a 07be f91a 503f
00000380: b6f7 0b3f 45c6 70be 153a ac3e 1934 813f
00000390: a540 123e a88a 55be ede3 803f fb8a 963c
000003a0: 1eef b03e ab1c 97bd 4cf0 443f cf32 f7be
000003b0: 609e bc3e 4115 5d3f 1a46 323f 98fa e03e
000003c0: da76 903e 82a2 193e 2b8c 843f bb38 753f
000003d0: ee46 4b3f 7d92 c53e 940c 443f dec2 3dbc
000003e0: cffb 2c3f 9e69 943e 5b31 893f d32b 533f
000003f0: b4c9 c0be c0fb 3cbe e299 d43e 9251 abbe

TensorArrayV2_1 f4 [47, 1, 64]
0.0 0.0 0.0 0.0 0.0 0.0 0.0 0.0
0.0 0.0 0.0 0.0 0.0 0.0 0.0 0.0
0.0 0.0 0.0 0.0 0.0 0.0 0.0 0.0
0.0 0.0 0.0 0.0 0.0 0.0 0.0 0.0
0.0 0.0 0.0 0.0 0.0 0.0 0.0 0.0
0.0 0.0 0.0 0.0 0.0 0.0 0.0 0.0
0.0 0.0 0.0 0.0 0.0 0.0 0.0 0.0
0.0 0.0 0.0 0.0 0.0 0.0 0.0 0.0
0.0 0.0 0.0 0.0 0.0 0.0 0.0 0.0
0.0 0.0 0.0 0.0 0.0 0.0 0.0 0.0
0.0 0.0 0.0 0.0 0.0 0.0 0.0 0.0
0.0 0.0 0.0 0.0 0.0 0.0 0.0 0.0
0.0 0.0 0.0 0.0 0.0 0.0 0.0 0.0
0.0 0.0 0.0 0.0 0.0 0.0 0.0 0.0
0.0 0.0 0.0 0.0 0.0 0.0 0.0 0.0
0.0 0.0 0.0 0.0 0.0 0.0 0.0 0.0
0.0 0.0 0.0 0.0 0.0 0.0 0.0 0.0
0.0 0.0 0.0 0.0 0.0 0.0 0.0 0.0
0.0 0.0 0.0 0.0 0.0 0.0 0.0 0.0
0.0 0.0 0.0 0.0 0.0 0.0 0.0 0.0
0.0 0.0 0.0 0.0 0.0 0.0 0.0 0.0
0.0 0.0 0.0 0.0 0.0 0.0 0.0 0.0
0.0 0.0 0.0 0.0 0.0 0.0 0.0 0.0
0.0 0.0 0.0 0.0 0.0 0.0 0.0 0.0
0.0 0.0 0.0 0.0 0.0 0.0 0.0 0.0
0.0 0.0 0.0 0.0 0.0 0.0 0.0 0.0
0.0 0.0 0.0 0.0 0.0 0.0 0.0 0.0
0.0 0.0 0.0 0.0 0.0 0.0 0.0 0.0
0.0 0.0 0.0 0.0 0.0 0.0 0.0 0.0
0.0 0.0 0.0 0.0 0.0 0.0 0.0 0.0
0.0 0.0 0.0 0.0 0.0 0.0 0.0 0.0
0.0 0.0 0.0 0.0 0.0 0.0 0.0 0.0
00000000: 0000 0000 0000 0000 0000 0000 0000 0000
00000010: 0000 0000 0000 0000 0000 0000 0000 0000
00000020: 0000 0000 0000 0000 0000 0000 0000 0000
00000030: 0000 0000 0000 0000 0000 0000 0000 0000
00000040: 0000 0000 0000 0000 0000 0000 0000 0000
00000050: 0000 0000 0000 0000 0000 0000 0000 0000
00000060: 0000 0000 0000 0000 0000 0000 0000 0000
00000070: 0000 0000 0000 0000 0000 0000 0000 0000
00000080: 0000 0000 0000 0000 0000 0000 0000 0000
00000090: 0000 0000 0000 0000 0000 0000 0000 0000
000000a0: 0000 0000 0000 0000 0000 0000 0000 0000
000000b0: 0000 0000 0000 0000 0000 0000 0000 0000
000000c0: 0000 0000 0000 0000 0000 0000 0000 0000
000000d0: 0000 0000 0000 0000 0000 0000 0000 0000
000000e0: 0000 0000 0000 0000 0000 0000 0000 0000
000000f0: 0000 0000 0000 0000 0000 0000 0000 0000
00000100: 0000 0000 0000 0000 0000 0000 0000 0000
00000110: 0000 0000 0000 0000 0000 0000 0000 0000
00000120: 0000 0000 0000 0000 0000 0000 0000 0000
00000130: 0000 0000 0000 0000 0000 0000 0000 0000
00000140: 0000 0000 0000 0000 0000 0000 0000 0000
00000150: 0000 0000 0000 0000 0000 0000 0000 0000
00000160: 0000 0000 0000 0000 0000 0000 0000 0000
00000170: 0000 0000 0000 0000 0000 0000 0000 0000
00000180: 0000 0000 0000 0000 0000 0000 0000 0000
00000190: 0000 0000 0000 0000 0000 0000 0000 0000
000001a0: 0000 0000 0000 0000 0000 0000 0000 0000
000001b0: 0000 0000 0000 0000 0000 0000 0000 0000
000001c0: 0000 0000 0000 0000 0000 0000 0000 0000
000001d0: 0000 0000 0000 0000 0000 0000 0000 0000
000001e0: 0000 0000 0000 0000 0000 0000 0000 0000
000001f0: 0000 0000 0000 0000 0000 0000 0000 0000
00000200: 0000 0000 0000 0000 0000 0000 0000 0000
00000210: 0000 0000 0000 0000 0000 0000 0000 0000
00000220: 0000 0000 0000 0000 0000 0000 0000 0000
00000230: 0000 0000 0000 0000 0000 0000 0000 0000
00000240: 0000 0000 0000 0000 0000 0000 0000 0000
00000250: 0000 0000 0000 0000 0000 0000 0000 0000
00000260: 0000 0000 0000 0000 0000 0000 0000 0000
00000270: 0000 0000 0000 0000 0000 0000 0000 0000
00000280: 0000 0000 0000 0000 0000 0000 0000 0000
00000290: 0000 0000 0000 0000 0000 0000 0000 0000
000002a0: 0000 0000 0000 0000 0000 0000 0000 0000
000002b0: 0000 0000 0000 0000 0000 0000 0000 0000
000002c0: 0000 0000 0000 0000 0000 0000 0000 0000
000002d0: 0000 0000 0000 0000 0000 0000 0000 0000
000002e0: 0000 0000 0000 0000 0000 0000 0000 0000
000002f0: 0000 0000 0000 0000 0000 0000 0000 0000
00000300: 0000 0000 0000 0000 0000 0000 0000 0000
00000310: 0000 0000 0000 0000 0000 0000 0000 0000
00000320: 0000 0000 0000 0000 0000 0000 0000 0000
00000330: 0000 0000 0000 0000 0000 0000 0000 0000
00000340: 0000 0000 0000 0000 0000 0000 0000 0000
00000350: 0000 0000 0000 0000 0000 0000 0000 0000
00000360: 0000 0000 0000 0000 0000 0000 0000 0000
00000370: 0000 0000 0000 0000 0000 0000 0000 0000
00000380: 0000 0000 0000 0000 0000 0000 0000 0000
00000390: 0000 0000 0000 0000 0000 0000 0000 0000
000003a0: 0000 0000 0000 0000 0000 0000 0000 0000
000003b0: 0000 0000 0000 0000 0000 0000 0000 0000
000003c0: 0000 0000 0000 0000 0000 0000 0000 0000
000003d0: 0000 0000 0000 0000 0000 0000 0000 0000
000003e0: 0000 0000 0000 0000 0000 0000 0000 0000
000003f0: 0000 0000 0000 0000 0000 0000 0000 0000

sequential_12/dense_12/MatMul f4 [1, 64]
-0.06192692 0.07798551 0.12441091 -0.0779378 0.10309882 -0.15523931 0.39553297 -0.054315142
-0.034781903 0.38552627 -0.0551121 -0.107206754 0.1283685 0.015310551 0.10215149 0.23047206
-0.03180619 -0.0110684605 -0.09987678 -0.008114007 -0.10401689 -0.07268925 -0.38456365 1.1180143
-0.05387026 0.08533347 -2.2818856 0.004615483 -0.062125146 -0.0031904024 0.34600303 -0.023696125
-1.2748808 0.2522077 0.044820875 -0.02029385 0.17524222 0.08760959 0.07772261 0.6651207
-0.10594523 0.056729168 -0.049961645 -2.2658536 -0.02068587 -0.17516422 0.41981035 -0.03512472
-0.010789275 -0.055127203 -0.16570768 -0.025332304 -0.16636595 1.5003994 -0.5314025 0.078360565
-0.032552697 -0.027920555 0.085862026 0.36787984 0.5989539 0.10368767 0.06861924 0.24017909
00000000: 15a7 7dbd deb6 9f3d 26cb fe3d da9d 9fbd
00000010: 7925 d33d 0ef7 1ebe 4c83 ca3e 8e79 5ebd
00000020: 7877 0ebd b363 c53e 3abd 61bd 378f dbbd
00000030: 0873 033e 1bd9 7a3c cd34 d13d de00 6c3e
00000040: 3547 02bd 7d58 35bc 328c ccbd 9df0 04bc
00000050: cf06 d5bd 1ade 94bd 87e5 c4be 181b 8f3f
00000060: 10a7 5cbd 50c3 ae3d 6a0a 12c0 7a3d 973b
00000070: f076 7ebd 1216 51bb 4f27 b13e 601e c2bc
00000080: 4b2f a3bf 5e21 813e 1896 373d 4a3f a6bc
00000090: b272 333e a86c b33d 082d 9f3d 5a45 2a3f
000000a0: d0f9 d8bd d85c 683d 95a4 4cbd bf03 11c0
000000b0: 6a75 a9bc 405e 33be 62f1 d63e f0de 0fbd
000000c0: 80c5 30bc 10cd 61bd 46af 29be b185 cfbc
000000d0: d65b 2abe 160d c03f ff09 08bf 817b a03d
000000e0: fa55 05bd a6b9 e4bc 6ed8 af3d bf5a bc3e
000000f0: 0b55 193f 335a d43d 3e88 8c3d 82f1 753e

lstm_12/lstm_cell_12/bias1 f4 [256]
-0.2673186 -0.5227715 0.1921549 0.5879634 0.70181525 0.3619687 0.56622887 -0.361494
0.16683109 -0.28257343 0.22441192 -0.46327123 -0.4204175 0.48417768 0.70695937 -1.4462447
0.2707376 0.97465175 -0.25195384 -0.82420754 0.72032833 0.586284 0.8613598 -0.5493641
0.5708307 0.5402378 -0.87391263 -0.93705714 -0.868166 0.48154408 0.77416587 1.154633
-0.0732537 0.34496102 1.114504 0.76838404 1.231979 0.20145983 -0.33972675 -0.51273173
0.77106315 0.71890646 0.44589105 -0.08829075 0.047514796 -0.0304387 0.37753388 0.9198853
-0.44376794 0.47709456 0.825663 0.36457017 -0.15741481 1.9062488 0.26026997 0.16551651
0.38411707 0.59071505 -0.22388677 0.794253 -0.07735786 0.73776644 0.9481256 0.20909332
1.2273339 1.7712352 0.6984926 -0.18454468 1.9445798 0.99471 1.1298578 1.5700244
0.70260066 1.6935862 1.2103359 1.9543436 1.0803095 1.5916005 0.9048788 1.1919299
2.3895514 0.8728312 1.1830187 0.8963584 1.3897164 0.9402485 0.91000986 1.4483829
0.4533376 0.26294404 0.6300252 2.095537 1.6207271 0.8570308 1.7473603 0.38190314
0.8744795 1.0132201 0.35532492 2.2134414 0.5189934 0.77943534 0.78075624 1.0528781
0.1764666 1.5812709 1.3826609 1.4381628 1.3643632 2.4216278 1.4138134 1.0982771
1.1776775 0.8321383 0.0922814 1.3826844 0.58704054 1.0651642 0.77767587 0.79700047
1.347433 1.5811014 1.6804184 1.9163889 1.0121146 1.179457 1.7938856 1.180374
-0.109962225 0.69880956 -0.39257118 -0.022626638 -0.023198163 -0.7980418 -0.33868888 -0.73861307
-0.49692428 0.0651273 -0.098527655 -0.22610788 0.39577165 -0.086914055 -0.41464996 0.32589164
1.0757321 0.42348653 -0.5486744 -0.23320964 -0.53991026 0.09654906 -0.92624646 -0.8392356
-0.5385774 -0.32429793 -0.2822688 0.30679008 0.22152603 -0.04317632 -0.020876396 0.27150518
0.17819257 0.7447722 -0.4221221 0.6589584 -0.22817375 0.24260063 -0.048822753 0.15648873
0.05222953 0.45785588 -0.5966332 0.5572656 0.23441736 -0.72138935 -0.18133163 0.07458015
0.6048301 -0.5096704 0.2204631 -0.14316489 -0.5460798 -0.23902327 -0.58863246 0.3146222
0.38826913 -0.93982834 -0.14659837 -0.627111 -0.004478089 -0.187556 0.59128064 -0.2534294
-0.40347213 0.6237165 1.6544056 -0.5395526 0.6038904 0.24824189 0.16066886 -0.17664559
0.34547013 0.754799 1.0797231 0.3414327 1.5547456 -0.27921933 0.9642746 0.06546336
0.74005634 0.42443416 1.0385699 0.0038314043 0.8270343 -0.19719993 0.106942914 0.42703488
0.9317727 1.1593058 0.11873137 0.66151035 -0.46943778 0.5654785 -0.13187528 0.81291157
0.5467485 -0.23513134 0.33638063 1.0094024 0.14282472 -0.20853674 1.0069557 0.018376818
0.34557432 -0.07378515 0.76929164 -0.4828095 0.3683958 0.86360556 0.69638216 0.43941188
0.28215677 0.15003398 1.0355276 0.9578969 0.79405105 0.38588324 0.7658169 -0.0115821045
0.6757173 0.2898683 1.0718187 0.82488745 -0.37653887 -0.1845541 0.41523653 -0.3346067
00000000: fcdd 88be 5ad4 05bf 41c4 443e c584 163f
00000010: 2aaa 333f f653 b93e 60f4 103f be15 b9be
00000020: c5d5 2a3e 77ad 90be 3dcc 653e e331 edbe
00000030: f640 d7be 23e6 f73e 4afb 343f 8c1e b9bf
00000040: 1e9e 8a3e c782 793f 1800 81be 44ff 52bf
00000050: 7067 383f b516 163f 1382 5c3f 20a3 0cbf
00000060: f621 123f 064d 0a3f bdb8 5fbf fae2 6fbf
00000070: 2140 5ebf f28c f63e bc2f 463f 04cb 933f
00000080: 0906 96bd bb9e b03e 11a8 8e3f d1b4 443f
00000090: 7db1 9d3f 7c4b 4e3e aaf0 adbe 6342 03bf
000000a0: 6564 453f 410a 383f d54b e43e c8d1 b4bd
000000b0: e09e 423d 955a f9bc 1f4c c13e 9a7d 6b3f
000000c0: 8d35 e3be bd45 f43e a65e 533f f1a8 ba3e
000000d0: 5931 21be f6ff f33f 1b42 853e 297d 293e
000000e0: feaa c43e 1a39 173f 9342 65be 2a54 4b3f
000000f0: cc6d 9ebd 43de 3c3f 5cb8 723f 8f1c 563e
00000100: 4719 9d3f d6b7 e23f 69d0 323f 48f9 3cbe
00000110: fee7 f83f 51a5 7e3f 2e9f 903f 8ff6 c83f
00000120: a3dd 333f 6fc7 d83f 49ec 9a3f ee27 fa3f
00000130: 9547 8a3f 91b9 cb3f 23a6 673f 2991 983f
00000140: 69ee 1840 de71 5f3f 286d 973f be77 653f
00000150: 3ae2 b13f 20b4 703f 68f6 683f 9c64 b93f
00000160: de1b e83e 9aa0 863e 5549 213f 471d 0640
00000170: fc73 cf3f 5f66 5b3f 81a9 df3f cf88 c33e
00000180: e3dd 5f3f 32b1 813f 26ed b53e 06a9 0d40
00000190: c0dc 043f 1389 473f a4df 473f b6c4 863f
000001a0: a9b3 343e 1667 ca3f 08fb b03f b815 b83f
000001b0: 74a3 ae3f f3fb 1a40 d6f7 b43f 5894 8c3f
000001c0: 23be 963f 0407 553f 08fe bc3d cdfb b03f
000001d0: 4a48 163f 4d57 883f c415 473f 3908 4c3f
000001e0: af78 ac3f 8861 ca3f f317 d73f 3b4c f53f
000001f0: f98c 813f 72f8 963f 0b9e e53f 7f16 973f
00000200: e033 e1bd 2fe5 323f 17ff c8be 805b b9bc
00000210: 130a bebc 784c 4cbf a168 adbe bf15 3dbf
00000220: dc6c febe 7661 853d dec8 c9bd d388 67be
00000230: 95a2 ca3e ffff b1bd 004d d4be 45db a63e
00000240: 97b1 893f 3ad3 d83e ed75 0cbf 82ce 6ebe
00000250: 8f37 0abf 83bb c53d 7d1e 6dbf 25d8 56bf
00000260: 35e0 09bf 610a a6be 8985 90be 9713 9d3e
00000270: b8d7 623e a7d9 30bd fa04 abbc ba02 8b3e
00000280: 1d78 363e 64a9 3e3f 6320 d8be 7fb1 283f
00000290: 61a6 69be 4d6c 783e 5efa 47bd 953e 203e
000002a0: a2ee 553d 166c ea3e f4bc 18bf f5a8 0e3f
000002b0: 1b0b 703e f9ac 38bf 00af 39be 7abd 983d
000002c0: 25d6 1a3f c279 02bf 14c1 613e d199 12be
000002d0: e3cb 0bbf 84c2 74be 9eb0 16bf 2916 a13e
000002e0: 36cb c63e 9798 70bf e21d 16be 598a 20bf
000002f0: efbc 92bb ae0e 40be 2b5e 173f 80c1 81be
00000300: e693 cebe e2ab 1f3f 90c3 d33f 1f20 0abf
00000310: 9098 1a3f 1f33 7e3e 6186 243e 95e2 34be
00000320: 76e1 b03e 823a 413f 5e34 8a3f 44d0 ae3e
00000330: e701 c73f d6f5 8ebe b3da 763f a711 863d
00000340: 5574 3d3f 6f4f d93e dcef 843f 4c18 7b3b
00000350: 85b8 533f c7ee 49be e304 db3d 51a4 da3e
00000360: a888 6e3f 2264 943f 6f29 f33d be58 293f
00000370: 265a f0be 33c3 103f 500a 07be f91a 503f
00000380: b6f7 0b3f 45c6 70be 153a ac3e 1934 813f
00000390: a540 123e a88a 55be ede3 803f fb8a 963c
000003a0: 1eef b03e ab1c 97bd 4cf0 443f cf32 f7be
000003b0: 609e bc3e 4115 5d3f 1a46 323f 98fa e03e
000003c0: da76 903e 82a2 193e 2b8c 843f bb38 753f
000003d0: ee46 4b3f 7d92 c53e 940c 443f dec2 3dbc
000003e0: cffb 2c3f 9e69 943e 5b31 893f d32b 533f
000003f0: b4c9 c0be c0fb 3cbe e299 d43e 9251 abbe

while/MatMul_1 f4 [256, 64]
2.4161124 -0.08110486 0.64439535 -0.9621887 1.4093915 0.5370281 0.019321937 0.17717907
2.7793195 1.2307508 0.52132547 0.8816486 -1.0412498 0.11554946 -0.6380339 -0.24785273
0.6769284 0.2042918 0.321267 -1.2766623 0.03750465 -2.5872316 -0.5312519 -0.6066557
0.6983166 0.73843247 0.59185076 1.1705139 -0.79444075 1.7412784 -0.7177258 -0.0002635158
0.7137173 0.6112803 0.7720122 -0.26292205 1.2612581 0.4016861 -0.36052096 -1.1355274
-0.34609523 -1.8547632 -0.23276922 0.76018494 0.45778373 0.08307914 0.14592135 0.25134006
1.7407995 -0.40707257 0.4114491 -1.0557585 -1.1711174 -1.0193691 -0.15944248 1.7176927
1.231398 -0.36883652 -0.003749084 -0.43798426 -1.0744683 -0.1421396 0.44567338 0.6315423
0.17275348 1.0209488 0.110801116 0.7549889 -0.24596632 1.2789253 -0.9840419 -1.4162539
-0.6168214 0.4276588 -0.3316387 -0.5785765 1.1640551 -1.3051201 0.36507955 -1.350477
-0.46020454 0.23017158 -0.11896127 -0.57658225 1.0892897 -0.57268745 -0.34653163 -0.15049617
-0.82185155 -0.022611106 -0.2864956 -0.3611257 1.0456291 0.22688374 -0.5606825 0.02877944
-0.15531337 -0.85322684 -0.37934202 0.63569164 -0.34078446 -0.3936897 -0.05434214 -1.0258092
0.16549325 -0.08027915 -0.3093338 0.73626757 0.43314353 0.3033343 -1.3523968 -1.3949387
0.9328819 0.41462097 -0.23708622 0.4619332 0.8280184 0.83153015 -1.0139863 -0.451383
-0.49509072 -0.42261824 0.21878071 -0.33506268 0.744256 -1.2525927 0.1705374 -0.6335251
-0.23825867 -0.7843318 1.5904152 -0.67348653 -0.29020458 0.30113465 0.5128826 0.623395
0.36473498 -0.12871139 -0.37855387 0.3726456 -1.262708 0.3089786 0.4577245 -0.44530088
-0.08363225 -0.30752036 -0.018907564 -0.64125836 2.2873502 0.19101237 0.56143945 -0.8841307
1.0003287 1.3382127 -1.091035 1.6073047 -0.9008815 -0.7697611 -0.0045532086 -0.71717906
-0.44202718 -1.7807208 -0.041195452 0.21416414 -0.61011785 -0.2104025 -0.65501505 -2.273533
-1.2065665 -0.7492467 0.6690341 0.29940155 -0.22092336 -0.782445 0.6364802 0.24340032
0.71273154 1.2915084 -0.45536 -1.2541553 1.642446 0.19906633 0.33265132 1.10074
-0.20772907 0.8017255 -0.95495194 -0.11656561 -0.37324312 0.12534145 -0.52836764 -0.33966774
-0.7479693 -0.21934384 2.1967237 -2.257312 0.08227185 -1.1267012 1.303646 1.3043885
0.7052554 -0.017116874 0.2679013 -0.77187073 0.5973044 1.0416592 0.25649038 1.5206897
1.0542111 -0.38064322 -1.7428259 3.2976735 0.72930497 0.77330077 -0.90557885 0.6087455
-0.68183035 -1.1323065 0.42676106 0.6991818 -1.0982715 -1.8106289 -0.7032225 0.04532967
1.331339 0.45678532 -0.2197944 0.12939166 0.93311566 0.6907937 1.0788238 -0.45212302
0.07853064 1.5225803 -0.40258205 1.2981029 0.0530014 -0.20308377 -0.15113547 0.5472339
1.0396922 -0.81499314 -0.4953971 1.2587261 -0.7158303 -0.5185533 -1.3931072 -0.82423764
1.3045514 -0.35587227 1.585305 -1.0068799 -1.6096853 0.1379389 -0.27456522 1.1207385
00000000: 96a1 1a40 4e1a a6bd 18f7 243f 0052 76bf
00000010: f166 b43f ac7a 093f 0a49 9e3c 6e6e 353e
00000020: 5fe0 3140 3e89 9d3f 9675 053f b9b3 613f
00000030: ac47 85bf 32a5 ec3d 3156 23bf 1bcd 7dbe
00000040: 2e4b 2d3f df31 513e 1c7d a43e ac69 a3bf
00000050: 7a9e 193d 3495 25c0 2000 08bf ca4d 1bbf
00000060: e0c4 323f e909 3d3f 8883 173f 66d3 953f
00000070: 7860 4bbf 36e2 de3f e1bc 37bf 7e28 8ab9
00000080: 2db6 363f de7c 1c3f 97a2 453f b89d 86be
00000090: e870 a13f cda9 cd3e 3496 b8be f658 91bf
000000a0: 6533 b1be e168 edbf 0e5b 6ebe 7b9b 423f
000000b0: a162 ea3e 6525 aa3d 686c 153e a5af 803e
000000c0: 85d2 de3f d16b d0be 75a9 d23e 1823 87bf
000000d0: 2de7 95bf b07a 82bf e444 23be 5bdd db3f
000000e0: 739e 9d3f 24d8 bcbe 31b3 75bb 793f e0be
000000f0: 2d88 89bf 0b8d 11be 4d2f e43e c2ac 213f
00000100: 4ae6 303e 73ae 823f b2eb e23d f446 413f
00000110: 98de 7bbe d3b3 a33f 2cea 7bbf cf47 b5bf
00000120: 02e8 1dbf 18f6 da3e 8ccc a9be 971d 14bf
00000130: c2ff 943f 2d0e a7bf b5eb ba3e 6edc acbf
00000140: ee9f ebbe 19b2 6b3e f7a1 f3bd e59a 13bf
00000150: d86d 8b3f a59b 12bf 986c b1be ab1b 1abe
00000160: dd64 52bf ed3a b9bc 8daf 92be 78e5 b8be
00000170: 2dd7 853f 3654 683e e388 0fbf dcc2 eb3c
00000180: 780a 1fbe 136d 5abf 1e39 c2be b0bc 223f
00000190: 4d7b aebe b291 c9be dd95 5ebd b74d 83bf
000001a0: 1077 293e 6569 a4bd 0061 9ebe 087c 3c3f
000001b0: fdc4 dd3e a24e 9b3e 571b adbf 5a8d b2bf
000001c0: 59d1 6e3f 3349 d43e bbc6 72be 8282 ec3e
000001d0: 04f9 533f 29df 543f 4eca 81bf ac1b e7be
000001e0: 887c fdbe 6b61 d8be 0d08 603e 568d abbe
000001f0: 9087 3e3f f554 a0bf 5ba1 2e3e b32e 22bf
00000200: 15fa 73be f8c9 48bf ba92 cb3f 9d69 2cbf
00000210: b295 94be 522e 9a3e 464c 033f d196 1f3f
00000220: 8bbe ba3e ebcc 03be d0d1 c1be 67cb be3e
00000230: 6aa0 a1bf 7132 9e3e de5a ea3e 7afe e3be
00000240: 6347 abbd 4f73 9dbe 09e4 9abc 8229 24bf
00000250: f263 1240 bf98 433e 7fba 0f3f 6456 62bf
00000260: c50a 803f 8e4a ab3f 09a7 8bbf 29bc cd3f
00000270: 2ca0 66bf 100f 45bf 1533 95bb 0c99 37bf
00000280: 6351 e2be a9ee e3bf 90bc 28bd d84d 5b3e
00000290: af30 1cbf c173 57be 11af 27bf 9181 11c0
000002a0: c570 9abf a2ce 3fbf d245 2b3f 294b 993e
000002b0: bc39 62be 514e 48bf 5ef0 223f ef3d 793e
000002c0: 9375 363f 2650 a53f f224 e9be 2988 a0bf
000002d0: ac3b d23f 0bd8 4b3e 4651 aa3e 0ce5 8c3f
000002e0: eeb6 54be e23d 4d3f bb77 74bf f3b9 eebd
000002f0: b919 bfbe 8259 003e 1a43 07bf eee8 adbe
00000300: eb7a 3fbf ac9b 60be 1f97 0c40 cd77 10c0
00000310: 257e a83d bf37 90bf dfdd a63f 34f6 a63f
00000320: 9e8b 343f b038 8cbc 5c2a 893e 5299 45bf
00000330: f1e8 183f 1755 853f b552 833e f6a5 c23f
00000340: 64f0 863f abe3 c2be eb14 dfbf 150d 5340
00000350: bbb3 3a3f 0af7 453f 04d4 67bf bfd6 1b3f
00000360: 6f8c 2ebf 6bef 90bf 6d80 da3e 94fd 323f
00000370: 2994 8cbf b0c2 e7bf 6406 34bf 9bab 393d
00000380: 5169 aa3f c4df e93e c811 61be 3f7f 043e
00000390: abe0 6e3f dbd7 303f e616 8a3f ab7c e7be
000003a0: acd4 a03d e9e3 c23f 3c1f cebe 3c28 a63f
000003b0: ff17 593d 31f5 4fbe 42c3 1abe 8517 0c3f
000003c0: a214 853f 64a3 50bf b0a4 fdbe f01d a13f
000003d0: a840 37bf e9bf 04bf 5651 b2bf 3d01 53bf
000003e0: 8afb a63f e434 b6be 46eb ca3f 71e1 80bf
000003f0: 2b0a cebf db3f 0d3e d093 8cbe 5c74 8f3f

while/MatMul f4 [256, 1]
0.49831554 0.7306038 1.1028237 5.704286 -0.5154269 0.22413096 0.10125978 0.9968641
0.46475518 0.036447678 0.62700325 0.5776733 0.975676 0.22102284 1.0320617 0.07902975
7.521756 0.7362398 0.6339088 -0.38219476 0.6266994 5.3692203 0.33336157 -0.22974293
-0.2811121 2.7683446 -0.65835375 -0.29529437 0.38619223 5.9303765 -0.4945694 -0.46671113
-0.3631979 -0.38644403 0.88518584 -0.21501344 0.10356679 0.38034764 0.34175828 -0.28527614
-0.2774953 -0.9991844 3.042618 -1.3772892 -0.16963093 -0.36357972 4.9480877 0.32550544
-0.252518 0.45687777 -0.4534786 -0.31752583 0.79718995 -0.05663885 -0.27285123 5.915523
0.01712169 0.92532474 0.5537684 2.9564536 0.6868333 -0.46889013 0.32535693 0.8761275
-0.12792145 -1.0344731 -0.017290292 0.59322584 -0.30400103 1.2244612 -0.20124464 -1.0849744
-0.3814849 -1.2588837 0.2505107 2.2026587 -0.31811875 0.0123936 1.3868221 3.7360523
-0.8168918 -0.13678432 0.2668058 0.6757169 -0.32739213 0.5588349 0.41198757 3.2338462
0.35070938 0.22990854 3.8325107 1.2256181 -0.31717503 2.8396156 0.10541399 -1.5100348
0.4892812 -1.3819567 1.0840441 -0.18342167 -0.48156866 -0.069885254 1.7830118 -0.21619047
-3.3858643 0.17483594 0.06815372 0.7613304 -1.03502 -0.3511354 -0.94078326 -0.5062606
0.22391726 4.801503 -0.6751542 -0.29873815 -0.18811424 0.7235575 1.0725111 -0.4529023
1.8145777 1.1017356 0.15431584 -0.35716686 1.1001908 0.03361739 0.16965789 0.32206476
-0.8373139 -0.5354538 1.1808122 -2.261928 -0.8199593 -0.17216155 1.8590131 0.7699558
-0.41738263 2.1389678 -0.5342104 -2.793265 1.4409995 1.9998962 -1.5478573 0.103143215
-11.059111 1.5075101 -1.6328368 3.3622086 1.0344261 -7.009497 0.70002204 -0.020664124
1.1045266 1.6936365 -0.8541296 -1.097163 -0.20491311 -3.5417032 1.5126871 -0.9793962
-0.5005396 -1.9260004 -0.73260057 -1.0386127 2.6459758 1.7121431 -0.8475921 -0.40454653
-1.2314804 -0.74107444 -1.228001 -1.6452327 -1.2921532 1.1053712 3.751007 -1.0690359
-0.53828 -0.94532526 -1.2289579 0.5526643 1.177707 -0.1919577 2.2938507 0.354842
-0.8909401 -2.7611127 0.41260555 1.704655 1.2038869 -1.2675544 0.9678078 0.4573334
-0.17232303 -0.41428676 -0.3102246 1.1167985 1.05071 0.54931825 1.446711 0.92936224
-0.023960928 -0.4685158 -0.21327691 -0.15881541 -0.3139461 1.135611 -0.2502458 0.17065544
-0.25439402 -0.24617976 -0.22081074 -0.13090385 -0.14862978 0.13786075 1.5028126 0.054457713
-0.42385206 0.027307875 0.9626998 -0.7073077 0.14997064 -0.3483423 0.25454497 1.3737942
3.6515386 9.618379 -0.3233253 -0.48457745 1.1309161 0.44187894 -0.23643672 2.6237273
0.28314576 0.09245584 -0.36963564 -0.030258149 1.4985396 -1.1680571 0.7094582 -0.40418658
0.770921 -0.26626575 -0.30941314 0.801638 -0.47877237 0.54739946 -1.041529 0.55068314
0.13626637 -0.22493143 0.27150914 0.6755982 -0.29049695 -0.30845854 -0.21866965 1.1300997
00000000: 3723 ff3e da08 3b3f 5429 8d3f 8389 b640
00000010: 04f3 03bf 9682 653e 4a61 cf3d 7c32 7f3f
00000020: 64f4 ed3e 294a 153d 4983 203f 66e2 133f
00000030: e7c5 793f d053 623e 991a 843f 59da a13d
00000040: 3ab2 f040 367a 3c3f d947 223f 08af c3be
00000050: 5f6f 203f a7d0 ab40 5eae aa3e bb41 6bbe
00000060: eded 8fbe 8f2c 3140 df89 28bf d330 97be
00000070: fdba c53e a5c5 bd40 3338 fdbe c3f4 eebe
00000080: 13f5 b9be fedb c5be 8a9b 623f 7c2c 5cbe
00000090: d31a d43d edbc c23e f1fa ae3e b70f 92be
000000a0: dd13 8ebe 8dca 7fbf 41ba 4240 034b b0bf
000000b0: bbb3 2dbe 1f27 babe bc56 9e40 a6a8 a63e
000000c0: 0a4a 81be e2eb e93e 592e e8be bf92 a2be
000000d0: a414 4c3f 24fe 67bd 28b3 8bbe f74b bd40
000000e0: c942 8c3c 15e2 6c3f c4c3 0d3f 8936 3d40
000000f0: 4fd4 2f3f 5e12 f0be 2f95 a63e e449 603f
00000100: d7fd 02be 9d69 84bf 5fa4 8dbc a6dd 173f
00000110: 06a6 9bbe 25bb 9c3f 1313 4ebe 71e0 8abf
00000120: fd51 c3be 1a23 a1bf f042 803e 5cf8 0c40
00000130: 76e0 a2be 870e 4b3c 6383 b13f 7b1b 6f40
00000140: d21f 51bf 3011 0cbe c59a 883e c8fb 2c3f
00000150: f19f a7be ce0f 0f3f 09f0 d23e 56f7 4e40
00000160: 2e90 b33e 256d 6b3e db47 7540 0ee1 9c3f
00000170: c464 a2be 43bc 3540 4ae3 d73d d248 c1bf
00000180: 1183 fa3e f5e3 b0bf f5c1 8a3f e4d2 3bbe
00000190: 2b90 f6be 0020 8fbd bb39 e43f 0961 5dbe
000001a0: 00b2 58c0 3108 333e 2d94 8b3d 8de6 423f
000001b0: 897b 84bf 05c8 b3be 2cd7 70bf 4b9a 01bf
000001c0: 914a 653e eaa5 9940 e8d6 2cbf 35f4 98be
000001d0: 05a1 40be 103b 393f 0b48 893f cfe2 e7be
000001e0: 1544 e83f ac05 8d3f f904 1e3e 93de b6be
000001f0: 0dd3 8c3f 63b2 093d ccba 2d3e ace5 a43e
00000200: 345a 56bf 8013 09bf db24 973f 6ec3 10c0
00000210: dae8 51bf 1e4b 30be 24f4 ed3f d31b 453f
00000220: 2db3 d5be d9e4 0840 03c2 08bf dbc4 32c0
00000230: ac72 b83f 99fc ff3f 3020 c6bf c03c d33d
00000240: 1ef2 30c1 17f6 c03f cc00 d1bf 6d2e 5740
00000250: 1368 843f cd4d e0c0 a534 333f cf47 a9bc
00000260: 2161 8d3f 15c9 d83f 3da8 5abf d66f 8cbf
00000270: bed4 51be 44ab 62c0 bb9f c13f b6b9 7abf
00000280: 5d23 00bf 2e87 f6bf b68b 3bbf 43f1 84bf
00000290: ab57 2940 8127 db3f ccfb 58bf b920 cfbe
000002a0: 26a1 9dbf 0eb7 3dbf 232f 9dbf fc96 d2bf
000002b0: 4765 a5bf ce7c 8d3f 8010 7040 2bd6 88bf
000002c0: b8cc 09bf d600 72bf 7e4e 9dbf 687b 0d3f
000002d0: 1abf 963f 8f90 44be 73ce 1240 daad b53e
000002e0: a714 64bf 12b6 30c0 0941 d33e 2332 da3f
000002f0: f718 9a3f 393f a2bf 41c2 773f 9a27 ea3e
00000300: 7375 30be 651d d4be c2d5 9ebe 41f3 8e3f
00000310: aa7d 863f 1fa0 0c3f d32d b93f afea 6d3f
00000320: b549 c4bc 4ee1 efbe 4365 5abe 82a0 22be
00000330: 8bbd a0be b45b 913f 3820 80be 4dc0 2e3e
00000340: ef3f 82be 8c16 7cbe 361c 62be a90b 06be
00000350: 6832 18be 5e2b 0d3e 2a5c c03f 0d0f 5f3d
00000360: 2303 d9be c4b4 df3c 7e73 763f 1e12 35bf
00000370: e791 193e ec59 b2be b853 823e 7dd8 af3f
00000380: cfb2 6940 e1e4 1941 e58a a5be 891a f8be
00000390: dcc1 903f f53d e23e 781c 72be 26eb 2740
000003a0: 7bf8 903e 7d59 bd3d e240 bdbe f0df f7bc
000003b0: 25d0 bf3f e582 95bf 0d9f 353f 8bf1 cebe
000003c0: 145b 453f fc53 88be 666b 9ebe 2638 4d3f
000003d0: a721 f5be 5f22 0c3f d350 85bf 92f9 0c3f
000003e0: 6989 0b3e 6d54 66be 3f03 8b3e 01f4 2c3f
000003f0: 04bc 94be 47ee 9dbe f0ea 5fbe 1ba7 903f
